Assets/ThirdParties/Zeta/ProjectAnalysis/Demo/ML-Agents/Models/DemoGameAgent.onnx (onnx, 82262 bytes, 8 tensors)

network_body.observation_encoder.processors.0.normalizer.running_mean f4 [20]
000000 18 1f 42 3e ab 47 f9 3d 9d 03 bc 3d ad 76 bc 3e
       0.18957174 0.12171873 0.09180377 0.36809292
000010 75 59 a3 3e e6 2b a0 3e 14 6d 43 3e 92 cb 45 3e
       0.31904188 0.31283492 0.19084579 0.19315937
000020 19 1d 3d 3e 7e 4f b3 3e aa a3 68 3f 96 50 3a 3e
       0.18468131 0.35021585 0.9087473 0.18194804
000030 00 00 00 00 00 00 00 00 00 00 00 00 ad 76 bc 3e
       0.0 0.0 0.0 0.36809292
000040 75 59 a3 3e e6 2b a0 3e ff 6c 8f 41 36 76 4f 3f
       0.31904188 0.31283492 17.92822 0.8103975

network_body._body_endoder.seq_layers.0.weight f4 [128, 20]
000000 3e 49 11 be 70 00 8d 3d 40 fd 2b 3d 60 f8 c1 be
       -0.14188096 0.06884849 0.041989565 -0.37884808
000010 08 25 d7 3d 7d f7 c7 be 97 7d 0b be 71 a8 ef 3d
       0.1050511 -0.39056006 -0.13622127 0.117020495
000020 11 30 cb 3e 40 6c 42 3c 61 9a 09 bd 2a 5f fd bc
       0.3968511 0.011866629 -0.033594493 -0.030929167
000030 df 8c fb 3e 7a 40 b9 be 7a dc de 3e ca 42 60 be
       0.49130914 -0.36182004 0.43527585 -0.21900478
000040 14 08 c6 bd 4f 12 53 3d cf 28 eb bd c2 c8 1c be
       -0.096695095 0.051531132 -0.11482393 -0.15310958
000050 f6 1f 32 be 13 b3 32 be e7 3d 22 be 1f e4 00 3e
       -0.17395005 -0.17451124 -0.15843926 0.12587021
000060 88 05 4d be 31 6c 64 be 12 7a 07 3d 7b c1 41 be
       -0.20021641 -0.22306897 0.0330754 -0.18921463
000070 b3 a6 cb be 3d ee 94 3b c4 18 9a bc a8 23 88 3e
       -0.3977562 0.004545002 -0.018810637 0.26589704
000080 ae 36 ae 3e 5f be 4e be d3 11 14 bf 89 48 ad be
       0.34026092 -0.20189808 -0.578397 -0.33844402
000090 49 f1 14 3f 8f d3 da be b2 9b ee bd af 3c 11 bd
       0.5818067 -0.4273953 -0.1165079 -0.035458263
0000a0 e9 ad 1e be 7b a0 87 3d f5 07 78 3e 02 50 e8 3e
       -0.15496029 0.06622406 0.24221785 0.4537354
0000b0 96 32 a1 be c1 9c a8 be e3 da db 3e 81 39 67 3e
       -0.31483907 -0.32932094 0.42940435 0.2258053
0000c0 04 1a 3c be 89 c4 21 3e d5 d4 17 be 4c 67 03 3e
       -0.18369299 0.15797628 -0.14827283 0.12832373
0000d0 75 cc 55 3d 23 55 db 3d 9f 59 ee bd 8b 16 02 3e
       0.05219694 0.10709598 -0.116381876 0.12703912
0000e0 91 6d 0c be e8 5f 0c 3c 23 e2 1d 3d c2 fc 27 3d
       -0.13713671 0.008567788 0.03854574 0.041012533
0000f0 a8 f1 a5 bd 14 98 e7 3d ea 01 ae 3e d8 26 bc 3e
       -0.08102733 0.113083035 0.33985835 0.36748385
000100 bf 96 83 3e 8f 9c f2 bd 0a 34 50 3e 07 c4 f4 3d
       0.25700948 -0.118462674 0.20332351 0.11951452
000110 f4 2f ba bc 0b bf a6 be 7c e7 be bd ec e0 22 bd
       -0.022727944 -0.3256763 -0.09321496 -0.039765283
000120 d5 30 95 bd ec 89 d4 3e 01 d5 e4 bc f5 b3 4b bd
       -0.072847046 0.41511476 -0.0279336 -0.049732167
000130 8c 97 5d bd 7a 41 bf be 3b fd 07 3e 20 44 c4 3e
       -0.054099604 -0.37354642 0.13280194 0.38333225
000140 9f 0b fb 3c f8 55 e9 be df 81 bb be d3 02 0b 3e
       0.03064519 -0.455734 -0.3662252 0.13575296
000150 8a 12 aa be 70 87 46 be cc ff b6 3b 22 4d 33 3e
       -0.3321727 -0.19387603 0.0055846926 0.17509893
000160 aa 72 bd 3d 5f eb de 3e e2 19 80 3d 78 06 0d 3e
       0.09250386 0.4353895 0.06254937 0.13771999
000170 28 a6 08 bf 2b 22 95 be 59 f5 1c 3e 0b ed 6f 3d
       -0.53378534 -0.2912763 0.15327968 0.05857567
000180 b0 ec e3 bd 79 bf 03 bf 7b 84 7b 3d f9 06 0c be
       -0.11129129 -0.5146404 0.06140564 -0.13674535
000190 fa 34 07 3d 1f cd 96 3c 44 d0 aa be 14 5e c9 3e
       0.033009507 0.018408356 -0.3336202 0.39329588
0001a0 df 53 85 3e 98 15 7c be ff 50 74 be 51 b5 02 3e
       0.2604055 -0.24617612 -0.23859023 0.12764479
0001b0 b1 49 34 3e 86 71 7f be a7 a8 42 3e 52 3b 53 3e
       0.17606236 -0.2494565 0.19009648 0.20628098
0001c0 ad 84 7d 3e b3 ac 90 3e 86 ca 41 bd dd 2d 5a bd
       0.24757643 0.2825676 -0.047312282 -0.053266395
0001d0 6d 6f 3c 3e c4 86 74 be 64 db cc 3e 41 4b 2e 3e
       0.1840188 -0.23879534 0.40011132 0.17020895
0001e0 57 52 2d be 41 b3 ec bd 41 95 32 3e b5 0d 81 bd
       -0.16925941 -0.115576275 0.17439748 -0.063014425
0001f0 d2 c2 b7 3e f7 cf d0 bd 61 81 86 3d 55 76 b6 be
       0.35890824 -0.10195916 0.06567646 -0.35637155
000200 f2 87 ae 3d 55 65 3e be be eb a9 3d 75 a8 8e 3c
       0.08522023 -0.18593343 0.082969174 0.017414311
000210 91 5e 3d 3e 80 40 bd be 90 80 36 3e 25 05 b3 3d
       0.18493105 -0.36963272 0.1782248 0.087412156
000220 f1 7b ea 3e ac a1 0e 3e f8 7c 8b be c6 2f 0c bf
       0.45797685 0.1392886 -0.2724378 -0.54760396
000230 59 04 0e 3e 2d 8a 93 bd 5a 6b 67 be 0e 5e 08 be
       0.13868846 -0.07204089 -0.22599545 -0.13317129
000240 af f0 ea be b9 da fd 3e 77 6f 4c 3e 5f d4 29 bc
       -0.45886752 0.49580935 0.19964395 -0.010365575
000250 b4 ff f3 3d 11 2b 9a bd e0 f8 b1 be 7e 63 30 be
       0.11914006 -0.075277455 -0.3476019 -0.17225453
000260 d5 a5 75 3d 28 3b 17 bd 36 22 75 be fa e3 d9 3e
       0.059972603 -0.03692165 -0.23938832 0.42556745
000270 c8 b3 0a be 9e 93 a2 be 1f e0 85 3e d5 8c db 3d
       -0.13545144 -0.31753248 0.26147553 0.10720221
000280 d8 c9 42 bd 25 85 5d be 7f 67 1f be 20 59 27 bc
       -0.047555774 -0.21632822 -0.15566824 -0.01021412
000290 ac 61 b2 3e 63 02 79 bc b8 10 df bd 85 04 f5 3c
       0.34840143 -0.015198323 -0.10891861 0.029909382
0002a0 d1 b8 99 3e f9 53 bc be 57 94 81 3b 93 c7 2d be
       0.30023816 -0.36782816 0.003954451 -0.16970663
0002b0 24 3a 5d 3e f9 96 b2 3c ee 11 f7 3d 20 30 8a be
       0.2160421 0.021800505 0.12063967 -0.2698984
0002c0 1c 3a 3b bd 7c f3 e4 3e 74 65 d4 3e 7e a5 10 bd
       -0.045709714 0.44717014 0.41483653 -0.035314076
0002d0 ca ea 05 3e da 59 a4 be 8d 91 70 bd ab 63 3f be
       0.13077846 -0.320998 -0.058732558 -0.18690364
0002e0 75 b9 f8 3e ae 4b c5 be 3f df d5 bc a4 22 8a 3e
       0.48578992 -0.38534302 -0.026107429 0.26979554
0002f0 9a 65 b5 bc e4 2d 58 be cd fe 54 3e 58 2c ee 3e
       -0.022143174 -0.21111256 0.20800324 0.46518207
000300 06 ba a9 bd e7 99 d2 bd 64 97 ea be d0 4a cd bc
       -0.08287434 -0.10283261 -0.45818627 -0.025060087
000310 26 19 dd 3d f9 5b 28 3e 72 c5 52 bd 28 8b c2 bd
       0.10795812 0.16441335 -0.05145783 -0.09499198
000320 1d 6b 33 bd 09 1d 4a 3e c1 21 29 3e f7 e1 78 3e
       -0.043803323 0.19737639 0.16516782 0.24304949
000330 f8 d1 04 3d 9a b6 a7 3e b0 f9 25 be b6 0e 5a bd
       0.032426804 0.327565 -0.1620853 -0.053236686
000340 1e 7a ba be de ff c5 3d 24 5e 54 bd 62 14 9a bc
       -0.36421293 0.096679434 -0.051847592 -0.018808547
000350 06 ec bd 3e 5c 6f 04 be d7 80 98 bc 37 09 28 3e
       0.37094134 -0.12933105 -0.018616123 0.16409765
000360 aa f1 3f 3e 88 af 4a be c8 cc db bd f4 9a fd bd
       0.18744531 -0.19793522 -0.10732418 -0.123830706
000370 66 c0 24 3e 91 05 17 be bb c4 91 be 77 7b 89 3d
       0.16089019 -0.14748217 -0.28470406 0.06713002
000380 3a 5a a1 bd ca 94 e7 3d 73 ef 61 3e 58 18 98 3e
       -0.078785375 0.11307676 0.22063999 0.29706073
000390 fc dd 90 3e 7c ae e1 3e f9 37 85 3e 2c 1b 5e 3e
       0.2829436 0.44078434 0.26019266 0.21690053
0003a0 c2 97 88 3e e3 bd 20 3e bc 38 ca bc e4 83 16 3d
       0.26678282 0.15697436 -0.024685256 0.036746874
0003b0 0d a5 d1 3e c0 b7 99 3c 3a 92 f2 3d 2b ea 0b 3f
       0.40946236 0.018764377 0.11844297 0.54654187
0003c0 d0 b3 8f 3e e9 32 4a bd b8 0f 4e 3e 05 ea 23 be
       0.28066874 -0.049364958 0.20123184 -0.1600724
0003d0 c0 0a b1 3d 56 fb 66 be 3a bb f6 3e c3 d8 59 3e
       0.086446285 -0.22556815 0.48189718 0.21274094
0003e0 14 4a 95 3e 65 66 79 be 19 78 ce bd 6a a3 cd be
       0.2915808 -0.24355467 -0.100815006 -0.40163738
0003f0 69 b8 1b be 9e e1 ad be ed 93 a3 be ba d6 06 be
       -0.15207066 -0.33961195 -0.31948796 -0.13167849

network_body._body_endoder.seq_layers.0.bias f4 [128]
000000 d1 7a 52 3d 48 e7 8c 3d a8 77 16 3c c6 e6 16 3d
       0.051386658 0.06880051 0.009183802 0.036841176
000010 08 99 c9 3c 8a a4 08 3d 08 9d 4b 3d da 48 d0 3c
       0.024609104 0.03336004 0.049710304 0.025425363
000020 2a be 52 3d 18 22 ff 3b fe 33 0a bc fb 42 9f 3d
       0.051450886 0.0077860467 -0.0084352475 0.077764474
000030 44 88 10 3c c5 f7 1d 3d e8 d5 74 3d 1e 9a 1e 3d
       0.008821551 0.03856637 0.05977431 0.038721196
000040 fa 8b 88 3d 71 73 81 3d 2e 3c 99 3c 6f 76 38 3d
       0.066673234 0.06320847 0.018705454 0.045034822
000050 9a 9e a5 3d 14 2f 20 3d 1d 4d 0f bd 33 24 93 3d
       0.080868915 0.039107397 -0.03498565 0.07184639
000060 bc 05 28 3a f2 73 37 3d 7e 50 02 3d f6 f1 6a 3d
       0.0006409546 0.04478831 0.031815045 0.05735966
000070 cf d6 84 3d 43 53 b5 3d 42 2b 9d 3c f3 12 07 3d
       0.06486284 0.088537715 0.019185666 0.032977056
000080 c8 68 00 3d 3a 0e 2c 3d 42 e6 c4 3c d8 9f 61 3d
       0.031349927 0.042005755 0.024035577 0.05508408
000090 c8 d5 ac 3c 6f cf 5b 3d 09 2e 00 3d ba 7a 10 3d
       0.021098033 0.05366462 0.031293903 0.03527329
0000a0 b9 6a 0c 3d 8c 3c 03 bc 09 8c 6e 3d 68 a1 1a 3c
       0.034281466 -0.008010041 0.058239017 0.009437896
0000b0 87 fa 85 3d 92 10 3a 3d 9e 02 91 3c db ee 3c 3d
       0.06541925 0.04542596 0.017701443 0.046126228
0000c0 2f d2 89 3d 9b d0 13 3d c2 7f 0a 3d 35 ce 0e 3d
       0.067295425 0.036087614 0.033813246 0.034864623
0000d0 be 48 36 3d c3 36 86 3d 8d 68 a7 3d e9 cc 2d 3d
       0.044502966 0.06553414 0.08174238 0.042431746
0000e0 fd f8 2d 3d cd 24 5b 3c 05 2d 25 3c 06 d6 a4 3c
       0.04247378 0.013375473 0.010081534 0.020121586
0000f0 0f 0c cc 3c 26 22 72 3d f7 78 e2 3c 1b 2d 74 3d
       0.024908094 0.059114598 0.027645571 0.05961333
000100 2c 6c 9f 3b 90 aa 5b 3d 20 d8 49 3d 7c b4 fa 3b
       0.00486519 0.053629458 0.04927838 0.00765091
000110 06 d1 c2 bc 3b 67 6d 3d 1f b5 8c 3d a1 38 af 3c
       -0.02378131 0.057959776 0.068704836 0.021389307
000120 03 f6 83 3d fd de 21 3d 8b d9 ef 3c 3c 08 e7 b9
       0.064434074 0.0395193 0.029278537 -0.00044065889
000130 e1 c4 a3 3d 3a 8e 50 bc ca 80 1a bc a0 15 7b 3d
       0.07996536 -0.012729222 -0.00943012 0.06129992
000140 2c 6e 7e 3c a9 53 17 bb 3d 15 2a 3d eb 55 11 3d
       0.015529197 -0.0023090637 0.04152416 0.03548233
000150 49 cc 30 3d fa f4 c5 3c 58 c0 28 3c 0c 22 d0 3d
       0.04316357 0.024164665 0.010299765 0.10162744
000160 d4 17 28 bd f5 c2 c5 3a e3 19 78 3d 1c 71 2a 3d
       -0.04103835 0.0015088009 0.060571562 0.041611776
000170 63 3e 97 bc 6a db 8c 3d d7 36 b0 3c 17 53 fd 3c
       -0.018462365 0.068777874 0.021510525 0.03092341
000180 90 b8 84 3b 8e ed ad bb 0d 4a 6d 3d 75 6c 7c 3d
       0.004050322 -0.0053078597 0.05793195 0.06162687
000190 a4 3c 79 bc 12 a2 80 3d df f8 3c 3d 1f a2 0b 3d
       -0.015212212 0.062809125 0.04613578 0.034090158
0001a0 5b 27 66 3d 74 88 9d 3d 40 25 2a 3d 15 83 a1 3d
       0.056189876 0.07692042 0.04153943 0.0788633
0001b0 8d a2 63 3d 1e c9 50 3d 3c e9 8c 3d bd 4e 34 3d
       0.055574942 0.05097305 0.068804234 0.044020403
0001c0 fd b3 94 3d ed d8 a3 3d d3 21 69 3d ac 41 8f 3d
       0.072608925 0.0800036 0.056917023 0.06994948
0001d0 18 bf 00 3d 0c 93 a8 3c e4 c2 19 3d e5 65 93 3d
       0.03143224 0.02057793 0.037539378 0.07197169
0001e0 ed 07 86 3c e4 0b 3f 3d b1 d4 7e 3d 69 61 1e 3d
       0.016361201 0.0466422 0.062214557 0.038667116
0001f0 6a 39 aa 3d 52 16 7e 3d d4 ef ab b9 31 ef 0d 3d
       0.08311732 0.062033005 -0.00032794347 0.03465194

network_body._body_endoder.seq_layers.2.weight f4 [128, 128]
000000 39 8f 06 be c8 ae f7 bc 1b 3d fc bd bf 62 05 be
       -0.13140573 -0.03023471 -0.123163424 -0.1302595
000010 d4 20 c1 bd a5 a9 1f be c8 e4 2e bd c9 f1 44 3d
       -0.094300896 -0.15592058 -0.04269865 0.048082147
000020 01 4e 77 bd 7d 5f 97 bd 95 38 05 bd 8e 7a 08 3c
       -0.060377125 -0.0739126 -0.032524664 0.008330001
000030 3d c7 1c be 14 50 52 3d c8 fd 9d bc fe 30 dc bc
       -0.15310378 0.0513459 -0.019286051 -0.02687883
000040 6d f7 ff bd b0 e5 99 bd a0 89 09 bd e8 c1 4b 3d
       -0.124983646 -0.075145125 -0.033578515 0.04974547
000050 a8 b7 8e bc 02 54 7d bd e9 57 db 3c 42 f8 02 be
       -0.017421558 -0.061847694 0.026775317 -0.12790015
000060 9d 52 13 bd 28 fa 74 3c 2f 95 45 3d 55 5f 46 3e
       -0.035967458 0.01495222 0.048237976 0.19372304
000070 65 89 d1 3d 23 46 3f 3d 6d 22 cc 3c c8 32 9e bc
       0.10231284 0.046697747 0.02491876 -0.019311324
000080 39 5b df bc de 98 6e 3e 00 f6 ec bd 6b fa 7b bd
       -0.027265178 0.23300502 -0.11570358 -0.061518114
000090 60 56 5c bd ad 11 07 3d eb 1a 14 3e 39 3b 3c be
       -0.05379331 0.03297584 0.14463393 -0.18381967
0000a0 21 7f bd 3c 83 5f 01 be 28 28 69 be 0f a9 2f bd
       0.023131909 -0.12634091 -0.22769225 -0.042885836
0000b0 c0 3f 49 3d 8d 93 81 3d 83 a3 af bd 64 e0 18 bd
       0.049133062 0.06326971 -0.08576109 -0.03732337
0000c0 88 f4 84 3d d5 ba a3 3d 45 7c cd bb 1b 32 94 3c
       0.06491953 0.0799462 -0.0062709176 0.018090298
0000d0 ca ab 3b 3e 02 a6 25 3e fc 5b d4 3d 38 b8 22 3d
       0.18327251 0.16176608 0.10369107 0.039726466
0000e0 cb e5 9d bd da 5d 12 3d 91 15 d9 3d fc 13 1a 3e
       -0.07709845 0.035734035 0.105998166 0.15046686
0000f0 35 75 30 bd b3 fc f8 3d 22 ca 76 3d f8 49 55 3d
       -0.043080527 0.121575736 0.060251363 0.052072495
000100 2f 66 1b be c6 57 3e 3e b7 d2 2b be c6 f6 05 bd
       -0.15175699 0.1858817 -0.167796 -0.032706045
000110 27 38 64 bd e5 20 55 3d 40 0e 07 bd 10 fe 2b 3e
       -0.055717614 0.052033324 -0.032972574 0.16796136
000120 a3 9d 05 3e 14 5b f9 bc 96 6d 75 3e cb 77 d3 3d
       0.13048415 -0.030438937 0.23967585 0.10325583
000130 63 d5 c8 bd 74 75 57 3d f7 c4 61 bd 23 ad c9 3d
       -0.09806325 0.052602246 -0.05511948 0.09847476
000140 61 48 51 3e e8 e0 00 3e c1 e5 ac bd 2c af f5 bc
       0.20437767 0.12585795 -0.084422596 -0.029990755
000150 0f 40 78 3c 8f 9b 31 3d a1 eb bd 3d 47 18 a8 3c
       0.0151519915 0.043361243 0.09273458 0.020519389
000160 41 96 6c bd b0 7e 54 bd 10 26 04 bd d2 c4 d2 bc
       -0.05776048 -0.05187863 -0.03226286 -0.025728617
000170 9f 17 96 3c c5 01 61 3e 7a ff b7 3d 6a 32 3c 3e
       0.01832181 0.21973331 0.08984275 0.18378606
000180 2f 9f ad 3d f1 43 bd 3c 18 b0 b7 3d 89 5b 24 be
       0.084776275 0.023103686 0.08969134 -0.16050543
000190 65 9f 80 3d b4 82 ac 3d 1a f7 a4 bd e7 82 a2 3c
       0.06280402 0.08423367 -0.080549434 0.01983781
0001a0 14 09 fb 3c 18 df 51 3d a3 36 b2 bd 40 c4 61 3d
       0.030643977 0.05123815 -0.087018274 0.0551188
0001b0 c7 6b b2 bc e8 d0 02 3e d2 56 05 3d a4 82 61 be
       -0.021779908 0.12775004 0.0325535 -0.22022492
0001c0 5b 45 95 3d 80 cc a5 bd fc 07 8f bd 17 d2 24 3e
       0.07288619 -0.08095646 -0.06983945 0.16095768
0001d0 60 06 2d 3d 40 98 12 be 55 4d 29 bd 13 cd 74 3d
       0.042242408 -0.14315891 -0.041333515 0.059765887
0001e0 5e 27 dd 3d 31 ce b7 bd ab f2 49 3d c9 73 15 bd
       0.10798524 -0.08974875 0.04930369 -0.036487374
0001f0 fd 3f 2e 3d 48 3b b7 bc f4 b7 1d 3d 72 93 97 bc
       0.042541493 -0.022367135 0.03850551 -0.018502925
000200 fe fe ff bd 07 46 9e 3b 11 40 74 bc 01 75 6d 3e
       -0.12499808 0.0048301253 -0.014907853 0.23189165
000210 9f 93 b6 3c 28 5f 83 3d f4 ad 0b be e4 d8 cd 3c
       0.022287188 0.06414634 -0.13640577 0.025127836
000220 35 4f d1 bd 14 87 05 bd 5a 47 be 3c 3e c3 b0 bc
       -0.10220186 -0.032599524 0.023227382 -0.021577474
000230 0a 1e 1c 3e 61 cc ac bd c8 f9 06 bd f6 ed d0 3d
       0.15245834 -0.0843742 -0.032953054 0.102016374
000240 a1 21 65 bd 76 37 0c 3e 0f 85 d4 bc 66 01 e2 bb
       -0.055940274 0.13693032 -0.025942354 -0.0068971394
000250 49 ed 8c bc dd fc 18 3c 4c f6 11 be 74 3f bb 3c
       -0.01720299 0.009337631 -0.14254111 0.022857405
000260 cc d5 15 be 8e 92 7d 3e e5 3c 8d 3d a4 53 8c bd
       -0.14632338 0.24762937 0.0689638 -0.06851891
000270 45 fc 9d 3d 74 fb ae 3d da 0e f8 3d 99 e4 ab 3d
       0.07714132 0.085440546 0.12112208 0.08393211
000280 a6 8f 23 be ee bf 0e be 3a 90 58 3d 6e 3e 54 bb
       -0.15972766 -0.13940403 0.05287192 -0.0032385844
000290 53 b8 a5 3b 8e 6f e3 bd 41 e6 89 bd 1d eb cf bd
       0.0050573735 -0.11105262 -0.067333706 -0.10152266
0002a0 64 ba 86 bc 27 d7 46 be 3c 7c 9e bc 82 a8 47 3b
       -0.0164463 -0.19418012 -0.019346349 0.0030465429
0002b0 43 bb 1f 3e 98 8f 70 bc da 8e 47 3c d0 73 f9 3c
       0.15598778 -0.014682673 0.012180055 0.030450732
0002c0 2f dd 01 bd e6 0f 53 bd f8 f4 d1 bb 0c fd a5 3c
       -0.031705078 -0.051528834 -0.0064073764 0.020262264
0002d0 d3 5b 2e 3d 20 cc 95 bd 21 87 90 bd b1 08 72 bd
       0.04256804 -0.073143244 -0.07057024 -0.05909032
0002e0 db 66 0c 3e bf 1b 98 3d 78 74 20 bd 79 aa 04 3e
       0.13711111 0.07427167 -0.039173573 0.12955655
0002f0 09 06 f1 ba 0e 30 35 be b2 24 ea 3c f1 72 3e 3d
       -0.001838864 -0.17694113 0.02858195 0.046496335
000300 90 3a a0 bd 55 2c 20 3e 8c 49 24 bd 63 4f fe 3b
       -0.0782367 0.15641911 -0.040109202 0.0077609285
000310 7a 76 2f bc af 74 b9 bc 05 98 17 be b4 a8 41 be
       -0.010709399 -0.022638647 -0.14804085 -0.18912011
000320 23 1b 5e 3d 04 1b 51 3d 7c ef 15 be d0 12 6a 3d
       0.0542251 0.051051155 -0.14642137 0.057146847
000330 92 f8 78 3e 52 f3 86 bc ea 22 73 3d 8b 57 0c 3a
       0.24313572 -0.016473446 0.05935947 0.0005353621
000340 cc cb 31 be 93 ca 63 3d 50 8c 17 bd a9 71 0a be
       -0.17362899 0.05561311 -0.036999047 -0.1351992
000350 88 1e 69 bd 68 75 f1 3d 1d c0 e7 bb 25 24 c3 bc
       -0.056913882 0.117899716 -0.0070724622 -0.023820946
000360 88 62 23 3b 7c b3 8a bd bb c4 12 3d e2 49 98 3d
       0.0024930555 -0.06772515 0.035832148 0.07435967
000370 5b aa 02 be d4 ab 10 3e 09 c5 03 be 0d 63 0d 3d
       -0.12760298 0.14128047 -0.12868132 0.03451829
000380 e2 c5 e1 3d 78 11 bd bd 3c 11 8c bd 96 1c 09 be
       0.11024071 -0.092318475 -0.06839225 -0.13389811
000390 9c 64 fa bd 85 04 22 be a1 67 20 be e6 1e 1f bd
       -0.12226221 -0.15822037 -0.15664531 -0.038847826
0003a0 70 60 5f 3e f5 76 91 3d 82 5d d5 3d cf ce 9b 3d
       0.21814132 0.071027674 0.10418226 0.07607805
0003b0 8a 05 b2 bc 72 33 f0 bd 0c b9 61 bd 43 1a 31 bd
       -0.021731157 -0.117285624 -0.055108115 -0.043237936
0003c0 b8 c2 ba 3c df 0c 49 3d f7 6b 4c 3e 55 6d 8c bd
       0.022797927 0.04908454 0.1996306 -0.06856791
0003d0 97 62 6d 3c 95 33 8a 3d 99 35 44 3d 38 68 bc bc
       0.014488838 0.0674812 0.047902677 -0.022998914
0003e0 d1 df 29 be 20 58 0c bc a7 2f 87 bd 99 87 95 bc
       -0.16589285 -0.0085659325 -0.06600886 -0.018253135
0003f0 0d e5 a2 3d 15 19 46 3e db 4a 85 bd e6 51 c8 3d
       0.07953844 0.19345506 -0.06508418 0.09781246

network_body._body_endoder.seq_layers.2.bias f4 [128]
000000 d6 0b 39 3d 9b 6e bf 3c 0f 33 ea 3c c9 75 25 3d
       0.045177303 0.02336817 0.0285888 0.04039553
000010 2e d7 f7 3c 2f ae 17 3c 5e 69 33 3c a7 13 72 3d
       0.030253973 0.009257837 0.010950414 0.059100773
000020 b9 bd 96 3c b0 ff 16 3d 9a 0d da 3c 75 e4 84 3c
       0.018401014 0.036864936 0.026617814 0.016222218
000030 60 23 ee 3c 36 b4 81 3c 24 39 21 3d 63 1b e6 3c
       0.029069602 0.015833002 0.039361134 0.02808923
000040 02 34 07 3d 0b d2 0a 3d 4d e0 54 3d 9f c1 f8 3c
       0.033008583 0.03389172 0.051971722 0.030365763
000050 fc 4e 7f 3d 5c 5e 8c 3c db 19 50 3d ef de 3f 3d
       0.062331185 0.017134838 0.050805908 0.046843465
000060 b0 28 da 3c 9c 5c 10 3d b5 5e e8 3c 94 19 2f 3d
       0.02663073 0.03524457 0.028365472 0.042749003
000070 48 34 de 3c 96 44 bb 3c 47 0f 2d 3d be 42 0f 3d
       0.027124539 0.022859853 0.042250898 0.03497576
000080 fd d9 c4 3c 0b 05 2d 3d ec ad 0f 3d 2c 5b 76 3d
       0.024029726 0.042241137 0.035077974 0.060145542
000090 4e 4b a2 3c 29 d7 28 3d ef f3 22 3d d2 73 d3 3c
       0.019811299 0.041220818 0.039783414 0.025812063
0000a0 03 bc 30 3d 70 36 2d 3d 8b 14 8c 3c 08 bb 37 3d
       0.043148052 0.042288244 0.01709964 0.0448561
0000b0 cf e3 1b 3d 46 10 d2 3c 47 b0 e6 3c 21 b0 46 3d
       0.038059052 0.025642525 0.028160227 0.048507813
0000c0 09 32 01 3d a0 97 bb 3c 58 8c b1 3c d1 14 f4 3c
       0.031541858 0.022899449 0.021673366 0.029795082
0000d0 c5 3a 99 3c 55 4e e6 3c dd 50 f7 3c 3e c5 0c 3d
       0.018704781 0.028113523 0.030189926 0.034367792
0000e0 e7 d0 c1 3c e8 70 af 3c e6 6b 2a 3d 8d 49 22 3d
       0.023659183 0.021416143 0.041606806 0.039620925
0000f0 50 ab 3d 3d b1 46 06 3d 2b 9b 36 3d c0 56 ad 3c
       0.046305954 0.03278226 0.044581573 0.02115953
000100 80 bd ce 3c 4a 5c 34 3d e5 c6 4a 3d 64 74 45 3d
       0.025236845 0.044033326 0.049506087 0.048206702
000110 6d 3f 14 bc da 08 59 3d 26 4d 41 3d 70 7e 28 3d
       -0.009048325 0.052986957 0.047192715 0.041136205
000120 10 2a b0 ba 63 63 4a 3d df 21 03 3d 68 fd e1 3c
       -0.001344027 0.04941119 0.032014724 0.027586654
000130 2e 5a 9a 3b dd bb c9 3c ad 81 22 3d 41 20 03 3d
       0.0047104573 0.024625713 0.03967445 0.03201318
000140 7c cb 10 3d df e4 1f 3d e2 1e ab 3c 52 bd 7d 3d
       0.035350308 0.039036628 0.02088875 0.061948128
000150 6e a6 4f 3d 97 ff 11 3c d4 97 e5 3c ce c7 e8 3c
       0.05069583 0.008911035 0.028026499 0.028415587
000160 3e 33 83 3c 51 1d 65 3d c3 34 05 3d ec 88 34 3d
       0.016015645 0.05593616 0.03252102 0.04407589
000170 77 77 4c 3d 2b 82 70 3d 24 8f db 3c e9 03 15 3d
       0.049918618 0.058717888 0.026801653 0.036380682
000180 ce 0d 16 3d 07 54 12 3d ab f1 bb 3c c0 da 7a 3d
       0.03663426 0.035724666 0.022942385 0.061243773
000190 f0 08 d0 3c 74 cf f4 3c c3 df 15 3d d0 01 1c 3d
       0.025394887 0.029884078 0.03659035 0.038087666
0001a0 8b 37 e0 3c 89 c5 92 3c c7 f0 4a 3d 85 fd e2 3c
       0.027370235 0.017916458 0.04954603 0.027708778
0001b0 ce 87 64 3d ad be 82 3b 4b dc 4b 3c ea b3 23 3d
       0.055793576 0.0039900155 0.012442659 0.0399665
0001c0 9c 4f b0 3c c4 b6 12 3d 8f ed e2 3c 0c 90 20 b9
       0.021522336 0.03581883 0.027701167 -0.0001531245
0001d0 a5 e3 06 3d 09 6e 2c 3d a9 28 21 3d e5 af 97 3c
       0.032931942 0.042097125 0.039345417 0.01851649
0001e0 36 ef c5 3c c0 fb 41 3d 69 67 cf 3c e7 c7 97 3c
       0.024161916 0.047359228 0.025317864 0.018527938
0001f0 59 c4 c7 3c 0b 17 f8 3c 49 61 f2 3c aa 59 10 3d
       0.024385618 0.030284425 0.029587405 0.03524176

action_model._discrete_distribution.branches.0.weight f4 [4, 128]
000000 c4 8c 3f bd 7c 92 3e 3d 9e 27 5e bd 44 50 5f 3d
       -0.046765104 0.046526417 -0.054237 0.054519907
000010 23 fc c6 3c ec 0b 9f bc 2e 58 5f bd 78 5e 50 3d
       0.02429015 -0.019414864 -0.054527454 0.050871342
000020 68 40 3f 3d ac c3 04 3d a8 fb 10 bd 45 fd 8b 3d
       0.046692282 0.03241317 -0.035396248 0.06835417
000030 6c e9 1f bd ba 8c f2 3c bd c3 93 3c 35 e0 7e 3d
       -0.039040968 0.02960812 0.018037671 0.06222554
000040 b6 f0 bc bb 75 5b 6d 3c 8f e5 46 bd 23 1c 6e 3d
       -0.0057659997 0.014487137 -0.048558768 0.058132302
000050 f8 e8 5e 3d 2c 4f 89 3d df 05 85 bd 2a 51 64 bd
       0.054421395 0.06704554 -0.064952604 -0.055741467
000060 1a 3d 33 bd 67 63 82 bd 53 b6 22 3d a4 d2 f2 3c
       -0.043759443 -0.06366616 0.03972466 0.029641457
000070 46 29 91 ba c2 90 03 bb e3 4b af 3c 48 e9 9a bc
       -0.0011074923 -0.0020075296 0.02139849 -0.018910065
000080 08 19 43 3d 70 b3 9e bd d1 fa 13 3d 97 5f 3e 3c
       0.047631294 -0.07749069 0.03612787 0.01161947
000090 13 46 2c bd 46 a3 81 bd 7a fd 81 bd 37 24 46 3d
       -0.042059015 -0.0632997 -0.06347175 0.04837438
0000a0 1c 02 38 bd a9 b1 83 bd 5c c4 02 3d 0e 35 a0 bd
       -0.044923887 -0.0643037 0.031925544 -0.078226194
0000b0 de e5 d3 3b 58 f6 07 bc a8 78 e8 3c 81 0e 3d bd
       0.0064666113 -0.008298479 0.028377846 -0.04615641
0000c0 88 29 8e 3d e3 e4 85 3d f4 5d 05 bd 5b df 59 bd
       0.06941515 0.06537797 -0.032560304 -0.053191524
0000d0 c6 07 23 bd 11 50 89 bd a3 0e 8f bd ac e9 13 3d
       -0.039802335 -0.067047246 -0.069852136 0.03611152
0000e0 4a a4 d5 3c 50 c4 df 3c 55 9d bc bd 73 65 15 3d
       0.026079316 0.027315289 -0.09209696 0.036473703
0000f0 da f6 8c bd f2 09 3c bc 7c a6 56 bd 0a 98 1a bd
       -0.06883021 -0.0114769805 -0.052404866 -0.037742652
000100 fb 2e 8a bc 4d 41 67 bd ce 20 03 3d 3d 22 6b bd
       -0.016868105 -0.05645876 0.032013707 -0.0574057
000110 94 78 5f bc bf 1e 99 bd fc b7 aa bd 9b 16 7c bd
       -0.013639588 -0.074765675 -0.083358735 -0.061544996
000120 1c a4 0d bc d8 09 3a bd f9 c6 59 bd 84 74 9d bd
       -0.008645084 -0.045419544 -0.05316827 -0.07688239
000130 58 a0 b9 bb e0 8e c2 3b e4 0b 41 bd 21 90 9b bd
       -0.0056648664 0.005937442 -0.04713048 -0.0759585
000140 7a 12 89 bc 04 32 85 bd 79 b4 18 bd 85 93 b6 bd
       -0.016732443 -0.0650368 -0.037281487 -0.08914856
000150 79 a9 1a bd de ff 4d 3c bc a9 69 bc ba 99 9a bb
       -0.037759278 0.0125732105 -0.014261659 -0.0047180327
000160 b7 d8 81 3d da f0 a3 bd 54 97 c3 3b e8 7e ee bb
       0.06340163 -0.08004923 0.0059689675 -0.007278312
000170 db be 6b bd b1 f9 97 bd ba 56 1a 3d ac 13 33 3d
       -0.05755506 -0.07420672 0.037680365 0.043719932
000180 37 a1 92 bd dc 98 fa bc 01 ce dc 3b e7 81 fd bc
       -0.071596555 -0.030590467 0.0067384248 -0.030945731
000190 04 35 36 3d 9e da 84 bd 4b d4 c8 3b 6d d5 0c bd
       0.044484153 -0.064870104 0.006128823 -0.034383226
0001a0 cd 14 1f 3c 8f b1 f0 bc ad 10 51 bd aa 96 b2 3c
       0.009709549 -0.029381542 -0.051041294 0.021800358
0001b0 5a 8b 1a 3d 6b f4 3c 3b 39 31 61 bb 30 ae 8c bd
       0.037730552 0.0028832208 -0.0034361614 -0.06869161
0001c0 33 fd 29 bd b3 e4 c0 bc d7 26 a8 3c 1c 6f 42 3d
       -0.041501235 -0.023546552 0.020526333 0.047469243
0001d0 a3 e2 83 bd 56 ef 59 3d b2 d1 89 bd 47 70 e1 bc
       -0.06439712 0.053206764 -0.06729449 -0.027519358
0001e0 d1 81 69 3d db e4 b8 bd 41 14 35 3d 09 bc 40 3d
       0.05700857 -0.09028026 0.04420877 0.047054324
0001f0 ac 50 1a 3d 2d 8d 02 3d c1 ce 1b 3d ee 5d 4c bd
       0.03767459 0.031872917 0.038038973 -0.049894266
000200 80 9f 6d bd d6 e8 2a bd bc f1 64 3d ea 1d b6 bd
       -0.05801344 -0.041725956 0.0558946 -0.088924244
000210 be f4 68 bd 51 0d d6 3b 9c c2 2c 3b 82 07 5b bd
       -0.05687403 0.006532349 0.0026361113 -0.053473957
000220 5b 8c 59 bd e7 4b b2 bc 6d c8 73 3d 5e 3b 79 bc
       -0.05311237 -0.021764709 0.059517313 -0.015211908
000230 3c 97 61 3d 6c 05 36 bd 85 7c 82 bc be 75 88 bd
       0.05507587 -0.044438764 -0.015928516 -0.066630825
000240 af af 31 3d 8f 07 b7 3c ce a8 52 bd 0f d2 a7 bd
       0.043380436 0.022342471 -0.051430516 -0.08194362
000250 9e b6 a6 bd 67 2c 58 bd e9 b3 63 bd ac 4a 0c bd
       -0.081403 -0.05277672 -0.055591498 -0.0342509
000260 82 29 2a bd d6 f8 4f 3d 4d 68 84 bd e1 1c ae bd
       -0.04154349 0.050774418 -0.06465206 -0.08501602
000270 51 c5 f1 3c 8e f3 47 3d 2f f7 47 3d 76 9e a9 3d
       0.029513033 0.048816256 0.048819717 0.08282177
000280 8d fa 9d bd 1d 10 44 bd be 39 bb bd fc 2d b3 bd
       -0.077138044 -0.04786693 -0.09141873 -0.08749005
000290 76 4e f8 3c 0e 21 98 bd d8 14 2b bd aa 1d 87 bd
       0.03031085 -0.0742818 -0.041767925 -0.06597455
0002a0 e5 50 80 3d 77 b2 7d bd fd 40 02 3b d1 e3 06 bd
       0.062654294 -0.061937775 0.0019875162 -0.032932106
0002b0 ad 70 92 3c c1 bc 48 bd f2 d4 48 bd f6 95 2a 3d
       0.017875994 -0.049008135 -0.049031205 0.04164692
0002c0 32 35 c6 bd 5d ea 59 bd 29 ef 0a bc e0 51 30 3d
       -0.09678115 -0.053202022 -0.008479872 0.043046832
0002d0 11 99 32 3c ff 92 5c 3d fc fb 00 3d 1a 15 73 bc
       0.010900752 0.053851124 0.03149031 -0.014836574
0002e0 68 a8 62 bc 6a 37 13 bd 85 e8 4d 3d 8a 69 91 bd
       -0.0138340965 -0.03594152 0.050270576 -0.07100208
0002f0 e0 2f ed bc 66 01 67 bd 7f 74 69 3d c0 bc 1f 3d
       -0.028953493 -0.056397818 0.056995865 0.038998365
000300 6f 30 35 bd fd 79 82 bd 63 36 e0 bd ee 81 3f bd
       -0.044235643 -0.06370924 -0.109478734 -0.04675477
000310 92 9d 03 3c ba 56 8e bc 86 4e a9 bc 52 8f 1b bd
       0.008033173 -0.017375339 -0.020667326 -0.037978478
000320 6e 42 58 bb 48 65 5b 3d 55 65 64 bd 7f 9d 71 3d
       -0.003299858 0.053563386 -0.0557607 0.05898809
000330 a3 4e a6 bc 4c 6f 7f bd 53 d9 7b 3d 4c e7 2d 3c
       -0.020301169 -0.062362 0.061486553 0.0106142275
000340 6c c4 21 3d 1e 21 90 3d 2d ef ca 3c f5 da 88 bc
       0.039493963 0.070375666 0.024772251 -0.01670597
000350 04 1d 85 bd ca 21 08 3d d8 cb 22 3d f8 a6 4a 3d
       -0.06499675 0.03323535 0.03974518 0.04947564
000360 42 4b 61 bd 05 fa 88 3d 69 15 e0 3c ef e3 46 3d
       -0.055003412 0.066883124 0.02735396 0.04855722
000370 a2 9b 9b 3d 5f a1 45 bd 22 3a 34 bd 80 3d 79 bd
       0.07598044 -0.0482496 -0.044000752 -0.060849667
000380 0f 8d 82 3d 02 d8 55 3d 44 b4 8e 3d 8b 03 a9 bc
       0.06374561 0.052207954 0.06967977 -0.020631572
000390 bf 55 52 bd 2a 21 85 3d 77 7e 16 3d e1 49 47 3d
       -0.051351305 0.06500466 0.0367417 0.04865444
0003a0 38 9f 78 bd 9e 52 fa bc 90 9b 16 bd d8 f0 2d bd
       -0.060698718 -0.030556973 -0.03676945 -0.042466015
0003b0 45 21 03 3d d2 be 2b 3d 64 07 9d bc c9 4d 89 3d
       0.03201415 0.041930027 -0.019168563 0.067042895
0003c0 e6 1a 05 3d 61 19 75 3d 3d e9 98 b9 59 32 b3 bb
       0.032496355 0.059838656 -0.00029165475 -0.0054686484
0003d0 3e 87 95 3d 81 0e 89 bd 02 2a 1f bd 9e 3e 7a bd
       0.07301186 -0.066922195 -0.03885842 -0.061094873
0003e0 ba 81 7a bd 71 e1 12 3d de 6c 91 bd 6a 41 f8 ba
       -0.061158873 0.03585953 -0.07100843 -0.0018940393
0003f0 ae 19 8a bd 71 36 0e bd 6e a8 65 bd e6 5f 6f 3d
       -0.06743179 -0.034719888 -0.05606883 0.058441065

action_model._discrete_distribution.branches.0.bias f4 [4]
000000 d9 18 4a bc b6 29 80 bb 9e ad 0e 3b ea 7c 37 3c
       -0.012335026 -0.0039112223 0.0021770964 0.011199215

onnx::Div_52 f4 [20]
000000 5b b4 c8 3e 6f 6d a7 3e bf dd 93 3e 6a f2 f6 3e
       0.392001 0.3270068 0.28880116 0.48231822
000010 91 a9 ee 3e 84 67 ed 3e 2f 5f 0d 3e 29 2b 01 3e
       0.46613744 0.4636804 0.13805841 0.1261412
000020 bf b9 01 3e da 2c 99 3e c0 96 41 3e 6d 7a f3 3d
       0.12668513 0.29917032 0.18905163 0.11888585
000030 e3 4e b4 3b e3 4e b4 3b e3 4e b4 3b 6a f2 f6 3e
       0.005502568 0.005502568 0.005502568 0.48231822
000040 91 a9 ee 3e 84 67 ed 3e fa 64 95 41 74 b7 c8 3e
       0.46613744 0.4636804 18.674305 0.39202464
